…
Layer (type)                    Output Shape         Param #     Connected to                     
==================================================================================================
input_1 (InputLayer)            [(None, 16)]         0                                            
__________________________________________________________________________________________________
input_2 (InputLayer)            [(None, 16)]         0                                            
__________________________________________________________________________________________________
concatenate (Concatenate)       (None, 32)           0           input_1[0][0]                    
                                                                 input_2[0][0]                    
__________________________________________________________________________________________________
dense (Dense)                   (None, 32)           1056        concatenate[0][0]                
__________________________________________________________________________________________________
activation (Activation)         (None, 32)           0           dense[0][0]                      
__________________________________________________________________________________________________
reshape (Reshape)               (None, 32, 1)        0           activation[0][0]                 
__________________________________________________________________________________________________
lstm (LSTM)                     (None, 32, 16)       1152        reshape[0][0]                    
__________________________________________________________________________________________________
lstm_1 (LSTM)                   (None, 32, 64)       20736       lstm[0][0]                       
__________________________________________________________________________________________________
lstm_2 (LSTM)                   (None, 128)          98816       lstm_1[0][0]                     
__________________________________________________________________________________________________
dense_1 (Dense)                 (None, 4096)         528384      lstm_2[0][0]                     
__________________________________________________________________________________________________
dropout (Dropout)               (None, 4096)         0           dense_1[0][0]                    
__________________________________________________________________________________________________
dense_2 (Dense)                 (None, 16)           65552       dropout[0][0]                    
==================================================================================================
Total params: 715,696
Trainable params: 715,696
Non-trainable params: 0
__________________________________________________________________________________________________
Model: "bob"
__________________________________________________________________________________________________
Layer (type)                    Output Shape         Param #     Connected to                     
==================================================================================================
input_3 (InputLayer)            [(None, 16)]         0                                            
__________________________________________________________________________________________________
input_4 (InputLayer)            [(None, 16)]         0                                            
__________________________________________________________________________________________________
concatenate_1 (Concatenate)     (None, 32)           0           input_3[0][0]                    
                                                                 input_4[0][0]                    
__________________________________________________________________________________________________
dense_3 (Dense)                 (None, 32)           1056        concatenate_1[0][0]              
__________________________________________________________________________________________________
activation_1 (Activation)       (None, 32)           0           dense_3[0][0]                    
__________________________________________________________________________________________________
reshape_1 (Reshape)             (None, 32, 1)        0           activation_1[0][0]               
__________________________________________________________________________________________________
lstm_3 (LSTM)                   (None, 32, 16)       1152        reshape_1[0][0]                  
__________________________________________________________________________________________________
lstm_4 (LSTM)                   (None, 32, 64)       20736       lstm_3[0][0]                     
__________________________________________________________________________________________________
lstm_5 (LSTM)                   (None, 128)          98816       lstm_4[0][0]                     
__________________________________________________________________________________________________
dense_4 (Dense)                 (None, 4096)         528384      lstm_5[0][0]                     
__________________________________________________________________________________________________
dropout_1 (Dropout)             (None, 4096)         0           dense_4[0][0]                    
__________________________________________________________________________________________________
dense_5 (Dense)                 (None, 16)           65552       dropout_1[0][0]                  
==================================================================================================
Total params: 715,696
Trainable params: 715,696
Non-trainable params: 0
__________________________________________________________________________________________________
Model: "eve"
_________________________________________________________________
Layer (type)                 Output Shape              Param #   
=================================================================
input_5 (InputLayer)         [(None, 16)]              0         
_________________________________________________________________
dense_6 (Dense)              (None, 32)                544       
_________________________________________________________________
activation_2 (Activation)    (None, 32)                0         
_________________________________________________________________
dense_7 (Dense)              (None, 32)                1056      
_________________________________________________________________
activation_3 (Activation)    (None, 32)                0         
_________________________________________________________________
reshape_2 (Reshape)          (None, 32, 1)             0         
_________________________________________________________________
lstm_6 (LSTM)                (None, 32, 16)            1152      
_________________________________________________________________
lstm_7 (LSTM)                (None, 32, 64)            20736     
_________________________________________________________________
lstm_8 (LSTM)                (None, 128)               98816     
_________________________________________________________________
dense_8 (Dense)              (None, 32)                4128      
_________________________________________________________________
dropout_2 (Dropout)          (None, 32)                0         
_________________________________________________________________
dense_9 (Dense)              (None, 16)                528       
=================================================================
Total params: 126,960
Trainable params: 126,960
Non-trainable params: 0
_________________________________________________________________
Training for 20 epochs with 128 batches of size 512
Epoch   0:   0% | abe: 7.961 | eve: 7.956 | bob: 7.952Epoch   0:   0% | abe: 7.962 | eve: 7.932 | bob: 7.944Epoch   0:   1% | abe: 7.
…
